…
        "Model ready for fine-tuning on your dataset"
      ]
    },
    {
      "cell_type": "code",
      "execution_count": null,
      "metadata": {
        "colab": {
          "base_uri": "https://localhost:8080/"
        },
        "id": "JGa0rnZbDcmi",
        "outputId": "ad73a423-0486-45c9-a8b2-62900d0251f4"
      },
      "outputs": [
        {
          "name": "stdout",
          "output_type": "stream",
          "text": [
            "DistilBertForSequenceClassification(\n",
            "  (distilbert): DistilBertModel(\n",
            "    (embeddings): Embeddings(\n",
            "      (word_embeddings): Embedding(30522, 768, padding_idx=0)\n",
            "      (position_embeddings): Embedding(512, 768)\n",
            "      (LayerNorm): LayerNorm((768,), eps=1e-12, elementwise_affine=True)\n",
            "      (dropout): Dropout(p=0.1, inplace=False)\n",
            "    )\n",
            "    (transformer): Transformer(\n",
            "      (layer): ModuleList(\n",
            "        (0-5): 6 x TransformerBlock(\n",
            "          (attention): DistilBertSdpaAttention(\n",
            "            (dropout): Dropout(p=0.1, inplace=False)\n",
            "            (q_lin): Linear(in_features=768, out_features=768, bias=True)\n",
            "            (k_lin): Linear(in_features=768, out_features=768, bias=True)\n",
            "            (v_lin): Linear(in_features=768, out_features=768, bias=True)\n",
            "            (out_lin): Linear(in_features=768, out_features=768, bias=True)\n",
            "          )\n",
            "          (sa_layer_norm): LayerNorm((768,), eps=1e-12, elementwise_affine=True)\n",
            "          (ffn): FFN(\n",
            "            (dropout): Dropout(p=0.1, inplace=False)\n",
            "            (lin1): Linear(in_features=768, out_features=3072, bias=True)\n",
            "            (lin2): Linear(in_features=3072, out_features=768, bias=True)\n",
            "            (activation): GELUActivation()\n",
            "          )\n",
            "          (output_layer_norm): LayerNorm((768,), eps=1e-12, elementwise_affine=True)\n",
            "        )\n",
            "      )\n",
            "    )\n",
            "  )\n",
            "  (pre_classifier): Linear(in_features=768, out_features=768, bias=True)\n",
            "  (classifier): Linear(in_features=768, out_features=2, bias=True)\n",
            "  (dropout): Dropout(p=0.2, inplace=False)\n",
            ")\n"
          ]
        }
      ],
      "source": [
        "print(model)"
      ]
    },
    {
      "cell_type": "markdown",
      "metadata": {
        "id": "Bx4hy_p8sO4k"
      },
      "source": [
        "Evaluation of DistilBERT Model"
      ]
    },
    {
      "cell_type": "markdown",
…
